…
odel\n","# model.fit(train_generator, epochs=config.epochs, validation_data=valid_generator, callbacks=[WandbCallback()])\n","# model.save_weights('resnet_eval.h5') \n","\n","results = model.evaluate(\n","    valid_generator,\n","    callbacks=[WandbCallback()],\n",")"],"execution_count":7,"outputs":[{"output_type":"stream","text":["Model: \"sequential\"\n","_________________________________________________________________\n","Layer (type)                 Output Shape              Param #   \n","=================================================================\n","resnet50 (Functional)        (None, 2048)              23587712  \n","_________________________________________________________________\n","flatten (Flatten)            (None, 2048)              0         \n","_________________________________________________________________\n","batch_normalization (BatchNo (None, 2048)              8192      \n","_________________________________________________________________\n","dense (Dense)                (None, 1024)              2098176   \n","_________________________________________________________________\n","batch_normalization_1 (Batch (None, 1024)              4096      \n","_________________________________________________________________\n","dense_1 (Dense)              (None, 512)               524800    \n","_________________________________________________________________\n","batch_normalization_2 (Batch (None, 512)               2048      \n","_________________________________________________________________\n","dense_2 (Dense)              (None, 256)               131328    \n","_________________________________________________________________\n","batch_normalization_3 (Batch (None, 256)               1024      \n","_________________________________________________________________\n","dense_3 (Dense)              (None, 1)                 257       \n","=================================================================\n","Total params: 26,357,633\n","Trainable params: 2,762,241\n","Non-trainable params: 23,595,392\n","_________________________________________________________________\n","39/39 [==============================] - 559s 14s/step - loss: 0.2386 - accuracy: 0.9118\n"],"name":"stdout"}]},{"cell_type":"code","metadata":{"id":"
…
