…
 target=\"_blank\">https://wandb.ai/todayisagreatday/NNA2%20Part%20B%20Redo/runs/2e51t00k</a><br/>\n","                Run data is saved locally in <code>wandb/run-20201108_165814-2e51t00k</code><br/><br/>\n","            "],"text/plain":["<IPython.core.display.HTML object>"]},"metadata":{"tags":[]}},{"output_type":"stream","text":["Model: \"sequential\"\n","_________________________________________________________________\n","Layer (type)                 Output Shape              Param #   \n","=================================================================\n","embedding (Embedding)        (None, 100, 20)           705740    \n","_________________________________________________________________\n","reshape (Reshape)            (None, 1, 100, 20)        0         \n","_________________________________________________________________\n","conv2d (Conv2D)              (None, 10, 81, 1)         4010      \n","_________________________________________________________________\n","max_pooling2d (MaxPooling2D) (None, 5, 41, 1)          0         \n","_________________________________________________________________\n","conv2d_1 (Conv2D)            (None, 10, 22, 1)         1010      \n","_________________________________________________________________\n","max_pooling2d_1 (MaxPooling2 (None, 5, 11, 1)          0         \n","_________________________________________________________________\n","flatten (Flatten)            (None, 55)                0         \n","_________________________________________________________________\n","dense (Dense)                (None, 15)                840       \n","=================================================================\n","Total params: 711,600\n","Trainable params: 711,600\n","Non-trainable params: 0\n","_________________________________________________________________\n","Epoch 1/250\n","44/44 [==============================] - 1s 12ms/step - loss: 2.7038 - accuracy: 0.0727 - val_loss: 2.7003 - val_accuracy: 0.0786\n","Epoch 2/250\n"
…
