…
"_blank\">https://wandb.ai/todayisagreatday/NNA2%20Part%20B%20Redo/runs/2jhk9rna</a><br/>\n","                Run data is saved locally in <code>/content/wandb/run-20201113_064622-2jhk9rna</code><br/><br/>\n","            "],"text/plain":["<IPython.core.display.HTML object>"]},"metadata":{"tags":[]}},{"output_type":"stream","text":["Model: \"sequential\"\n","_________________________________________________________________\n","Layer (type)                 Output Shape              Param #   \n","=================================================================\n","embedding (Embedding)        (None, 100, 50)           1764350   \n","_________________________________________________________________\n","dropout (Dropout)            (None, 100, 50)           0         \n","_________________________________________________________________\n","rnn (RNN)                    (None, 100, 20)           4320      \n","_________________________________________________________________\n","dropout_1 (Dropout)          (None, 100, 20)           0         \n","_________________________________________________________________\n","rnn_1 (RNN)                  (None, 20)                2520      \n","_________________________________________________________________\n","dropout_2 (Dropout)          (None, 20)                0         \n","_________________________________________________________________\n","dense (Dense)                (None, 15)                315       \n","=================================================================\n","Total params: 1,771,505\n","Trainable params: 1,771,505\n","Non-trainable params: 0\n","_________________________________________________________________\n","Epoch 1/100\n","44/44 [==============================] - 8s 183ms/step - loss: 2.6817 - accuracy: 0.0696 - val_loss: 2.6552 - val_accuracy: 0.0729\n","Epoch 2/1
…
