…
mport numpy as np\n","import tensorflow as tf\n","model = keras.models.load_model('/content/drive/My Drive/Neural Networks/NN_Assignment_2/Part_A_Object_Recognition/obj_recognition_sc.h5')\n","from keract import get_activations, display_activations\n","model.summary()"],"execution_count":3,"outputs":[{"output_type":"stream","text":["Model: \"sequential\"\n","_________________________________________________________________\n","Layer (type)                 Output Shape              Param #   \n","=================================================================\n","reshape (Reshape)            (None, 32, 32, 3)         0         \n","_________________________________________________________________\n","conv2d (Conv2D)              (None, 24, 24, 50)        12200     \n","_________________________________________________________________\n","max_pooling2d (MaxPooling2D) (None, 12, 12, 50)        0         \n","_________________________________________________________________\n","conv2d_1 (Conv2D)            (None, 8, 8, 60)          75060     \n","_________________________________________________________________\n","max_pooling2d_1 (MaxPooling2 (None, 4, 4, 60)          0         \n","_________________________________________________________________\n","flatten (Flatten)            (None, 960)               0         \n","_________________________________________________________________\n","dense (Dense)                (None, 300)               288300    \n","_________________________________________________________________\n","dense_1 (Dense)              (None, 10)                3010      \n","=================================================================\n","Total params: 378,570\n","Trainable params: 378,570\n","Non-trainable params: 0\n","_________________________________________________________________\n"],"name":"stdout"}]},{"cell_type":"markdown","metadata":{"id":"wivPp1yLhHGN"},"source":["# Load Data"]},{"cell_type":"code","metadata":{"id":"2xFhY2URHPmr","executionI
…
