…
\n","# Load model weights\n","# model.load_weights('/content/drive/MyDrive/Colab_Notebooks/NN_group_assignment/pretrained_adience_v5.h5')\n","model.load_weights('/content/drive/MyDrive/Colab_Notebooks/NN_group_assignment/model_celeba_no_val.h5')\n","model.summary()"],"execution_count":null,"outputs":[{"output_type":"stream","text":["Model: \"sequential\"\n","_________________________________________________________________\n","Layer (type)                 Output Shape              Param #   \n","=================================================================\n","mobilenetv2_1.00_224 (Functi (None, 1280)              2257984   \n","_________________________________________________________________\n","flatten (Flatten)            (None, 1280)              0         \n","_________________________________________________________________\n","batch_normalization (BatchNo (None, 1280)              5120      \n","_________________________________________________________________\n","dense (Dense)                (None, 1024)              1311744   \n","_________________________________________________________________\n","batch_normalization_1 (Batch (None, 1024)              4096      \n","_________________________________________________________________\n","dense_1 (Dense)              (None, 512)               524800    \n","_________________________________________________________________\n","batch_normalization_2 (Batch (None, 512)               2048      \n","_________________________________________________________________\n","dense_2 (Dense)              (None, 512)               262656    \n","_________________________________________________________________\n","batch_normalization_3 (Batch (None, 512)               2048      \n","_________________________________________________________________\n","dense_3 (Dense)              (None, 1)                 513       \n","=================================================================\n","Total params: 4,371,009\n","Trainable params: 4,330,241\n","Non-trainable params: 40,768\n","_________________________________________________________________\n"],"name":"stdout"}]},{"cell_type":"code","metadata":{"id":"5CBaAkSa7_IT","colab":{"base_uri":"https://localhost:8080/"},"outputId":"f8f07d34-8906-495b-ab1e-8
…
