…
r/>\n","                Run data is saved locally in <code>/content/wandb/run-20201123_045341-3cdjvxyo</code><br/><br/>\n","            "],"text/plain":["<IPython.core.display.HTML object>"]},"metadata":{"tags":[]}},{"output_type":"stream","text":["Found 9755 validated image filenames.\n","Found 2439 validated image filenames.\n","Model: \"sequential_1\"\n","_________________________________________________________________\n","Layer (type)                 Output Shape              Param #   \n","=================================================================\n","mobilenetv2_1.00_224 (Functi (None, 1280)              2257984   \n","_________________________________________________________________\n","flatten_1 (Flatten)          (None, 1280)              0         \n","_________________________________________________________________\n","batch_normalization_4 (Batch (None, 1280)              5120      \n","_________________________________________________________________\n","dense_4 (Dense)              (None, 512)               655872    \n","_________________________________________________________________\n","dropout_3 (Dropout)          (None, 512)               0         \n","_________________________________________________________________\n","batch_normalization_5 (Batch (None, 512)               2048      \n","_________________________________________________________________\n","dense_5 (Dense)              (None, 512)               262656    \n","_________________________________________________________________\n","dropout_4 (Dropout)          (None, 512)               0         \n","_________________________________________________________________\n","batch_normalization_6 (Batch (None, 512)               2048      \n","_________________________________________________________________\n","dense_6 (Dense)              (None, 512)               262656    \n","_________________________________________________________________\n","dropout_5 (Dropout)          (None, 512)               0         \n","_________________________________________________________________\n","batch_normalization_7 (Batch (None, 512)               2048      \n","_________________________________________________________________\n","dense_7 (Dense)              (None, 1)                 513       \n","=================================================================\n","Total params: 3,450,945\n","Trainable params: 3,411,201\n","Non-trainable params: 39,744\n","_________________________________________________________________\n","Epoch 1/35\n","153/153 [==============================] - 151s 988ms/step - loss: 2.7151 - accuracy: 0.9299 - val_loss: 2.7327 - val_accuracy: 0.9131\n","E
…
