…
 .loc[row_indexer,col_indexer] = value instead\n","\n","See the caveats in the documentation: https://pandas.pydata.org/pandas-docs/stable/user_guide/indexing.html#returning-a-view-versus-a-copy\n"],"name":"stderr"},{"output_type":"stream","text":["Found 9755 validated image filenames.\n","Found 2439 validated image filenames.\n","Model: \"sequential_2\"\n","_________________________________________________________________\n","Layer (type)                 Output Shape              Param #   \n","=================================================================\n","mobilenetv2_1.00_224 (Functi (None, 1280)              2257984   \n","_________________________________________________________________\n","flatten_2 (Flatten)          (None, 1280)              0         \n","_________________________________________________________________\n","batch_normalization_8 (Batch (None, 1280)              5120      \n","_________________________________________________________________\n","dense_8 (Dense)              (None, 1024)              1311744   \n","_________________________________________________________________\n","batch_normalization_9 (Batch (None, 1024)              4096      \n","_________________________________________________________________\n","dense_9 (Dense)              (None, 512)               524800    \n","_________________________________________________________________\n","batch_normalization_10 (Batc (None, 512)               2048      \n","_________________________________________________________________\n","dense_10 (Dense)             (None, 512)               262656    \n","_________________________________________________________________\n","batch_normalization_11 (Batc (None, 512)               2048      \n","_________________________________________________________________\n","dense_11 (Dense)             (None, 1)                 513       \n","=================================================================\n","Total params: 4,371,009\n","Trainable params: 4,330,241\n","Non-trainable params: 40,768\n","_________________________________________________________________\n","Epoch 1/20\n","77/77 [==============================] - 157s 2s/step - loss: 0.2576 - accuracy: 0.8912 - val_loss: 0.2645 - val_accuracy: 0.8983\n","Epoch 
…
