…
\n","    validation_data=test_generator,\n","    epochs=config.epochs,\n","    callbacks=[WandbCallback()],\n",")\n","model.save_weights('pretrained_adience_v2.h5') \n","# run.finish()"],"execution_count":3,"outputs":[{"output_type":"stream","text":["Found 9755 validated image filenames.\n","Found 2439 validated image filenames.\n","Model: \"sequential\"\n","_________________________________________________________________\n","Layer (type)                 Output Shape              Param #   \n","=================================================================\n","mobilenetv2_1.00_224 (Functi (None, 1280)              2257984   \n","_________________________________________________________________\n","flatten (Flatten)            (None, 1280)              0         \n","_________________________________________________________________\n","batch_normalization (BatchNo (None, 1280)              5120      \n","_________________________________________________________________\n","dense (Dense)                (None, 1024)              1311744   \n","_________________________________________________________________\n","batch_normalization_1 (Batch (None, 1024)              4096      \n","_________________________________________________________________\n","dense_1 (Dense)              (None, 512)               524800    \n","_________________________________________________________________\n","batch_normalization_2 (Batch (None, 512)               2048      \n","_________________________________________________________________\n","dense_2 (Dense)              (None, 512)               262656    \n","_________________________________________________________________\n","batch_normalization_3 (Batch (None, 512)               2048      \n","_________________________________________________________________\n","dense_3 (Dense)              (None, 1)                 513       \n","=================================================================\n","Total params: 4,371,009\n","Trainable params: 2,106,369\n","Non-trainable params: 2,264,640\n","_________________________________________________________________\n","Epoch 1/15\n","77/77 [==============================] - 3761s 49s/step - loss: 1.1301 - accuracy: 0.5748 - val_loss: 0.6915 - val_accuracy: 0.5047\n","E
…
