…
"stream","text":["Found 9755 validated image filenames.\n","Found 2439 validated image filenames.\n","Downloading data from https://storage.googleapis.com/tensorflow/keras-applications/mobilenet_v2/mobilenet_v2_weights_tf_dim_ordering_tf_kernels_1.0_224_no_top.h5\n","9412608/9406464 [==============================] - 0s 0us/step\n","Model: \"sequential\"\n","_________________________________________________________________\n","Layer (type)                 Output Shape              Param #   \n","=================================================================\n","mobilenetv2_1.00_224 (Functi (None, 1280)              2257984   \n","_________________________________________________________________\n","flatten (Flatten)            (None, 1280)              0         \n","_________________________________________________________________\n","batch_normalization (BatchNo (None, 1280)              5120      \n","_________________________________________________________________\n","dense (Dense)                (None, 512)               655872    \n","_________________________________________________________________\n","dropout (Dropout)            (None, 512)               0         \n","_________________________________________________________________\n","batch_normalization_1 (Batch (None, 512)               2048      \n","_________________________________________________________________\n","dense_1 (Dense)              (None, 512)               262656    \n","_________________________________________________________________\n","dropout_1 (Dropout)          (None, 512)               0         \n","_________________________________________________________________\n","batch_normalization_2 (Batch (None, 512)               2048      \n","_________________________________________________________________\n","dense_2 (Dense)              (None, 512)               262656    \n","_________________________________________________________________\n","dropout_2 (Dropout)          (None, 512)               0         \n","_________________________________________________________________\n","batch_normalization_3 (Batch (None, 512)               2048      \n","_________________________________________________________________\n","dense_3 (Dense)              (None, 1)                 513       \n","=================================================================\n","Total params: 3,450,945\n","Trainable params: 3,411,201\n","Non-trainable params: 39,744\n","_________________________________________________________________\n","Epoch 1/20\n","153/153 [==============================] - 1972s 13s/step - loss: 2.0796 - accuracy: 0.8230 - val_loss: 2.5720 - val_accuracy: 0.7999\n","Ep
…
