…
 .loc[row_indexer,col_indexer] = value instead\n","\n","See the caveats in the documentation: https://pandas.pydata.org/pandas-docs/stable/user_guide/indexing.html#returning-a-view-versus-a-copy\n"],"name":"stderr"},{"output_type":"stream","text":["Found 9755 validated image filenames.\n","Found 2439 validated image filenames.\n","Model: \"sequential_5\"\n","_________________________________________________________________\n","Layer (type)                 Output Shape              Param #   \n","=================================================================\n","mobilenetv2_1.00_224 (Functi (None, 1280)              2257984   \n","_________________________________________________________________\n","flatten_5 (Flatten)          (None, 1280)              0         \n","_________________________________________________________________\n","batch_normalization_20 (Batc (None, 1280)              5120      \n","_________________________________________________________________\n","dense_20 (Dense)             (None, 1024)              1311744   \n","_________________________________________________________________\n","batch_normalization_21 (Batc (None, 1024)              4096      \n","_________________________________________________________________\n","dense_21 (Dense)             (None, 512)               524800    \n","_________________________________________________________________\n","batch_normalization_22 (Batc (None, 512)               2048      \n","_________________________________________________________________\n","dense_22 (Dense)             (None, 512)               262656    \n","_________________________________________________________________\n","batch_normalization_23 (Batc (None, 512)               2048      \n","_________________________________________________________________\n","dense_23 (Dense)             (None, 1)                 513       \n","=================================================================\n","Total params: 4,371,009\n","Trainable params: 2,106,369\n","Non-trainable params: 2,264,640\n","_________________________________________________________________\n","Epoch 1/15\n","77/77 [==============================] - 161s 2s/step - loss: 0.7231 - accuracy: 0.7444 - val_loss: 0.5879 - val_accuracy: 0.6593\n","Epo
…
