…
 .loc[row_indexer,col_indexer] = value instead\n","\n","See the caveats in the documentation: https://pandas.pydata.org/pandas-docs/stable/user_guide/indexing.html#returning-a-view-versus-a-copy\n"],"name":"stderr"},{"output_type":"stream","text":["Found 9755 validated image filenames.\n","Found 2439 validated image filenames.\n","Model: \"sequential_4\"\n","_________________________________________________________________\n","Layer (type)                 Output Shape              Param #   \n","=================================================================\n","mobilenetv2_1.00_224 (Functi (None, 1280)              2257984   \n","_________________________________________________________________\n","flatten_4 (Flatten)          (None, 1280)              0         \n","_________________________________________________________________\n","batch_normalization_16 (Batc (None, 1280)              5120      \n","_________________________________________________________________\n","dense_16 (Dense)             (None, 1024)              1311744   \n","_________________________________________________________________\n","batch_normalization_17 (Batc (None, 1024)              4096      \n","_________________________________________________________________\n","dense_17 (Dense)             (None, 512)               524800    \n","_________________________________________________________________\n","batch_normalization_18 (Batc (None, 512)               2048      \n","_________________________________________________________________\n","dense_18 (Dense)             (None, 512)               262656    \n","_________________________________________________________________\n","batch_normalization_19 (Batc (None, 512)               2048      \n","_________________________________________________________________\n","dense_19 (Dense)             (None, 1)                 513       \n","=================================================================\n","Total params: 4,371,009\n","Trainable params: 4,330,241\n","Non-trainable params: 40,768\n","_________________________________________________________________\n","Epoch 1/45\n","77/77 [==============================] - 4295s 56s/step - loss: 0.5121 - accuracy: 0.7725 - val_loss: 0.4588 - val_accuracy: 0.7975\n","Epoc
…
